models/model_artifacts.pkl (torch, 494928 bytes, 17 tensors)

tcn.0.conv1.weight f4 [64, 117, 3]
000000 cd 89 10 3d e7 c1 1e 3d 58 fc 93 bc 31 a1 42 3d
       0.035287667 0.03875914 -0.018064663 0.047517005
000010 2e f0 57 bc 9a c0 18 3c 81 22 dd bc f4 dc f8 3c
       -0.013179822 0.009323264 -0.026993992 0.030378796
000020 80 f3 3c 3d af 80 28 bd 25 de 35 3d e0 ca 02 3c
       0.046130657 -0.041138347 0.044401307 0.0079829395
000030 06 78 27 3d 46 4d 0e 3c e2 cd de 3c fd 21 c0 bb
       0.040885948 0.008685416 0.027197782 -0.0058634267
000040 c9 6b 2f 3d 62 e7 1c 3c a5 b0 dc bc fc 99 3d 3c
       0.0428274 0.00957665 -0.0269397 0.011572357
000050 ce 36 da bc f5 77 d7 bb 80 33 b4 bc 1f b9 0f 3d
       -0.026637461 -0.0065755793 -0.021997213 0.035088655
000060 0e 9b 2d bd 01 a8 cb bc e2 1f 7b bc 2b c1 05 bd
       -0.0423842 -0.024860384 -0.015327426 -0.032654922
000070 ce ac 92 3b 4c 3c 5a bd 35 be 47 3d 39 6b 37 bd
       0.0044761663 -0.05328016 0.04876538 -0.04477999
000080 29 16 2b 3d a5 ba 1a 3c 69 61 89 bc bc 66 09 3d
       0.04176918 0.009443914 -0.016770082 0.03354524
000090 b2 1e 15 3c e0 d7 33 3d 88 be d8 3b ee 71 90 bc
       0.009101557 0.043907046 0.00661451 -0.01763245
0000a0 60 f0 5d 3c 93 29 7a bc 2a 29 b0 3c 14 35 3f 3d
       0.013546079 -0.015268701 0.021504004 0.04668148
0000b0 1d a9 f4 3c 16 c7 c7 bc 5d b1 f3 3c 17 d1 0a 3c
       0.029865796 -0.024386924 0.02974766 0.0084727025
0000c0 9d ba ea 3c 20 36 fe bc 29 75 52 bd 7d 06 95 bc
       0.028653437 -0.031031668 -0.051381264 -0.01819157
0000d0 5f 8b 1d bd 31 b9 3d 3d 66 cf 8b 3c 19 1a c3 3c
       -0.038462993 0.04631919 0.017066669 0.023816155
0000e0 66 65 98 3c 21 83 b7 3a bd a2 34 3d 96 ca 11 bd
       0.018603038 0.0014000871 0.04410051 -0.03559359
0000f0 d9 22 e3 3b 28 9d 06 bd 87 09 a4 3c 99 f8 74 bc
       0.0069316444 -0.03286472 0.020024074 -0.014951848
000100 d1 0d a2 3c c6 15 fc bb 85 55 40 3d 4e 20 ed bc
       0.019781979 -0.0076930253 0.046956558 -0.028946068
000110 49 b8 ee bc 8b c3 ee bc 19 ac 4f 3d d3 cb a7 3c
       -0.029140608 -0.029145977 0.050701234 0.020482933
000120 9a 62 5d 3d e4 67 29 bd 71 d1 4d bd 8d 5b 25 bd
       0.054049112 -0.041358843 -0.050248567 -0.040370513
000130 36 71 0d bd ba 3c bc 3c a7 6d 96 3c 0d 9d 32 3d
       -0.034531794 0.022978175 0.018362833 0.043606807
000140 d3 fc e7 bc 38 58 04 bd 51 ba 04 3d 10 31 8f bc
       -0.028318798 -0.032310694 0.032404248 -0.01747945
000150 d8 50 16 3d a4 cb 09 bc 64 47 0e 3d 58 51 32 bd
       0.036698192 -0.008410368 0.034736052 -0.043534607
000160 16 73 ed bc 7b 38 69 3c eb ca 32 3c 6a 25 65 bc
       -0.028985541 0.014234657 0.010912637 -0.013985971
000170 a7 be 00 3d f5 c4 17 3d 9a 62 1b bd 78 26 e3 bc
       0.03143182 0.037053067 -0.03793583 -0.027728304
000180 17 c5 47 3d 83 63 94 bc 59 be 9b bc 0a ca 58 bd
       0.048771944 -0.018113857 -0.019011663 -0.052927054
000190 10 73 02 bd 15 6d 45 3c dc 93 01 bc c8 3d 22 bd
       -0.031848013 0.012049933 -0.007908788 -0.0396097
0001a0 0a a2 c9 39 9d bc 16 bd 91 e3 3a bd b4 96 f3 bc
       0.00038458436 -0.03680097 -0.04562718 -0.029734947
0001b0 fc 08 43 bd 0c da 0e bd 25 e6 56 3d aa 63 16 3c
       -0.04761599 -0.034875914 0.052465577 0.009179035
0001c0 19 e4 7e 3c c7 8f 4f bd b1 08 0f bd 89 4b 90 bc
       0.015557312 -0.050674226 -0.0349204 -0.017614143
0001d0 b5 3e 0b 3c 8b 3e 50 bd 84 03 dc bc 9c aa 12 bd
       0.008498837 -0.050840896 -0.026857145 -0.035807237
0001e0 a3 67 14 bb 60 85 b6 bc 84 40 c8 bb c9 7c 23 bd
       -0.002264478 -0.022280395 -0.0061112065 -0.039913926
0001f0 8d 70 25 bd 12 e9 0e bd 7e c3 88 bc cd f8 25 bd
       -0.04039054 -0.034890242 -0.01669478 -0.040520478
000200 76 e9 3d 3d c7 6c 0b bc da e8 44 3d ed 53 9a 3c
       0.046365224 -0.008509821 0.048073627 0.018838847
000210 64 bd 23 bd 42 b0 2c 3d 91 16 1b bc f8 53 a5 bc
       -0.03997554 0.04216028 -0.0094658295 -0.020181641
000220 53 55 34 bd f3 39 58 bd 94 6f 84 3c 26 2a 30 bc
       -0.044026684 -0.05278964 0.016166486 -0.0107522365
000230 9f d2 b1 3c dd af 2f bd 42 1e 26 3d 76 95 1c bd
       0.021706877 -0.042892326 0.0405562 -0.038228475
000240 e8 11 08 bc a5 69 45 3c a0 1b e9 3c ba e2 31 3d
       -0.00830505 0.012049113 0.028455555 0.043429114
000250 5a 8c 48 3d 67 f9 2b bd 57 97 61 3c bb 50 b9 bc
       0.048961975 -0.041985895 0.013768992 -0.022621503
000260 f4 ad b4 bb 2f ef 21 bd 7b ed 48 3d cc a0 1e bd
       -0.005513901 -0.039534744 0.049054604 -0.038727567
000270 8d ee d5 3c 93 18 86 3c b4 54 75 3c 57 b5 ee bc
       0.026114726 0.01636914 0.014973808 -0.029139204
000280 ce e4 45 3d 80 37 3e 3c f2 2e c9 3b ad 68 43 bd
       0.04831391 0.011609912 0.0061396295 -0.04770725
000290 41 93 b2 3c 8a 00 80 bb be cf a6 bc 6d 74 4c 3d
       0.021798732 -0.0039063143 -0.020362731 0.04991572
0002a0 b4 4b 8a 3c 04 08 c8 bc ee 80 b2 bc 1a 47 ca b9
       0.016881801 -0.024417885 -0.021789994 -0.00038581417
0002b0 11 f5 02 3d 92 d9 3b bc df af f6 bc cd da 92 bc
       0.031971995 -0.011465447 -0.030113159 -0.017926598
0002c0 28 d4 21 bd a2 5f a2 3c 3b 97 2c 3d 9e 2f 4a bd
       -0.03950897 0.019820992 0.042136412 -0.049361818
0002d0 42 08 63 3c a5 4b ee 3c 1d 71 38 3c 87 a6 8a bc
       0.013856949 0.029088804 0.011257437 -0.01692511
0002e0 94 45 f5 3c 25 d0 f6 3c 97 05 93 3c 7b 98 3a bc
       0.029940404 0.030128548 0.017947001 -0.011388893
0002f0 8a 3a 84 bc a9 4d 72 3b 34 6e 3b bc 6c c1 92 bc
       -0.016141195 0.0036972559 -0.011439849 -0.017914496
000300 b2 37 0c 3d cb c1 3b 3d 75 90 b1 bb 59 1c 33 bc
       0.034232803 0.045839112 -0.005418832 -0.010932052
000310 f5 a0 ed 3a 0c 73 0b bb 2c ae eb 3b 8c 64 17 3c
       0.0018129634 -0.002127829 0.0071923938 0.009240281
000320 6d 32 5e bd a2 df d3 bc 96 af 1e 3d a4 5d 6e 3c
       -0.05424731 -0.025863472 0.03874167 0.014548693
000330 f5 c5 5f bb 63 9f 06 bd 2b 4a 08 bd 8a e7 34 bd
       -0.0034145091 -0.032866847 -0.033273857 -0.044166125
000340 a4 14 60 bc e4 b9 b2 3c c0 17 0b 3d a5 44 c9 3c
       -0.013676796 0.021817155 0.033958197 0.024568865
000350 56 8f 41 bd e4 83 08 bd d3 39 1e bc 11 62 4e 3d
       -0.047255836 -0.033328906 -0.009657341 0.050386492
000360 f9 a1 c7 3b 5c 03 7d bc 15 97 a7 3c 80 d5 b8 bc
       0.0060923067 -0.0154426955 0.020457784 -0.022562742
000370 9d bb 16 bd 27 40 16 3d 5b 33 bc bc e9 0f 1a bc
       -0.036800016 0.036682274 -0.022973707 -0.009403207
000380 b1 2d 54 bd 3a 6c 17 3d 69 be 2a 3d 7c 91 a9 3c
       -0.051801387 0.036968447 0.041685496 0.020699255
000390 db 6a 13 bd 84 be 52 bd dc 88 2c bd e5 82 22 3d
       -0.035990577 -0.05145122 -0.042122707 0.039675612
0003a0 9a b7 d1 3c 98 fe 37 3d ae b9 d7 3c 17 e9 42 3c
       0.025600243 0.044920534 0.026333656 0.011896393
0003b0 85 bc 0b bb 78 cc 33 bd c3 df 48 bd fa 0b 5a bd
       -0.0021322083 -0.04389617 -0.04904152 -0.053234078
0003c0 2c a3 91 3c b7 dc f7 bc 62 d8 71 bc 79 86 dd bc
       0.017778002 -0.030256612 -0.014761062 -0.02704166
0003d0 ba f0 c6 bb 5f fb 0a bd f6 a0 03 bd 60 cb a7 3c
       -0.0060711773 -0.033931132 -0.032135926 0.020482719
0003e0 d4 9e 55 bc 07 d5 15 3d 5e 75 5d bc 3f a4 11 bd
       -0.013038356 0.03658011 -0.013516752 -0.035557028
0003f0 e8 9e 13 bc 8f a0 d0 bc 9b 9b 82 bc cc 98 43 bd
       -0.009010054 -0.025467185 -0.01594334 -0.04775314

tcn.0.conv1.bias f4 [64]
000000 2d fd 9d bc b9 4a bb 3c 99 96 c5 3c f4 b4 4c 3d
       -0.019285763 0.022862779 0.024119662 0.049977258
000010 fd 5e 18 3d cb 57 47 3d 6c 78 67 3c 15 83 35 bd
       0.037199963 0.04866771 0.014127832 -0.044314463
000020 b6 81 c1 bb 50 ca 9f bb cb 60 8c bc 0c 34 bb bc
       -0.0059053553 -0.0048764125 -0.017135998 -0.022851966
000030 4c 94 05 bc af a5 e8 3c 0c 1a bb 3b 19 e5 45 3d
       -0.0081530325 0.028399317 0.005709892 0.048314188
000040 4f 05 1f bd 44 9d 91 3b 5b 81 f4 3c a5 65 42 3c
       -0.038823422 0.0044437964 0.029846838 0.011865054
000050 12 0d 05 3d 3b 30 38 3d e3 da 50 bd 8b 09 3c bd
       0.032483168 0.04496787 -0.050989997 -0.04590754
000060 c5 22 3d 3d b5 e5 e7 bb b1 0a 56 3d 70 f6 be bc
       0.046175737 -0.0070769438 0.05225629 -0.02331087
000070 22 32 99 ba f2 e2 38 3b a8 9c 36 3d 16 a9 24 bd
       -0.0011687914 0.0028211442 0.044582993 -0.040200315
000080 5a 3c f4 bb 9a a5 bf 3c ea 2d 0b bd a4 d9 c2 3b
       -0.0074534835 0.023394395 -0.033979334 0.005946355
000090 9c 55 e5 3c 3d cf ab 3b 4e e4 e5 3c 91 77 8f 3c
       0.027994923 0.0052432106 0.028062966 0.017513068
0000a0 f4 37 95 3c ec a4 55 bc c8 db 1f 3d d6 6f cc bc
       0.018215157 -0.013039809 0.03902796 -0.024955671
0000b0 a8 73 17 bd 01 df 1a 3c 36 13 18 3d 49 ef 4c 3d
       -0.036975533 0.009452582 0.037127696 0.050032888
0000c0 77 94 dc bb 6b a1 d1 3c e3 ab 7a ba cc 76 a5 bc
       -0.0067315656 0.025589665 -0.0009562356 -0.020198248
0000d0 35 ec ad bc 91 5f 4d bc 0a 89 a0 bc 62 04 ac 3c
       -0.021230796 -0.012534992 -0.019596595 0.020998184
0000e0 a3 7b 2c 3d 3a 3a 08 bd 29 ee 98 b9 20 09 b9 3c
       0.042110097 -0.033258654 -0.00029169142 0.022587359
0000f0 9c 08 d9 3c 58 6b ca 3b 96 d1 e1 bc 9b 1c fa bc
       0.026493363 0.006177347 -0.027565759 -0.030531218

tcn.0.conv2.weight f4 [64, 64, 3]
000000 bd e5 78 bd 34 37 85 bd 77 8e 58 bd 56 1c d2 bc
       -0.06076597 -0.0650467 -0.05287024 -0.025648277
000010 6a ed b9 3c 80 bc 89 3d 34 3f 9e bc 7b f1 8b 3d
       0.022696216 0.06725407 -0.019317247 0.06833168
000020 b7 95 2a 3d 37 62 ee 3c c9 a9 0c 3d 49 bd fc bb
       0.041646685 0.029099567 0.034341607 -0.0077129942
000030 00 62 40 bc 40 4a 85 bc 04 8b 79 bd 31 b6 95 bc
       -0.011742115 -0.016270757 -0.06092359 -0.018275352
000040 ae 7f 0f bd e6 0a 68 bd 0d 56 4c bd 01 a6 89 3d
       -0.035033874 -0.05665102 -0.049886752 0.06721116
000050 f4 fe 06 3c cf 9a 6b 3d e6 3d 35 3d 71 0f d9 3c
       0.0082394965 0.057520684 0.044248484 0.02649662
000060 87 9b 6a bd 50 42 d7 bc 74 1e db 3c 02 22 aa 3c
       -0.05727723 -0.026276737 0.02674792 0.02076817
000070 28 f6 65 bd 3e ce 94 3d 9f ca 7b 3d e1 76 01 3d
       -0.056142956 0.072659 0.06147253 0.031607512
000080 52 c1 27 bd 5a e1 d7 3c 71 1d 16 3d 56 61 d3 3c
       -0.04095585 0.026352573 0.03664917 0.02580325
000090 c4 5a 09 bd 00 fb 94 3b 96 9f 58 bd 16 8b fd bc
       -0.033533826 0.004546523 -0.052886568 -0.03095011
0000a0 70 0f 0b bd 99 63 87 3d 45 fc 4c bd 40 b7 e7 3c
       -0.03395027 0.066107936 -0.05004527 0.028285623
0000b0 66 ce 7f 3b 7e 32 11 ba 9f 56 b6 3c 4d 1b 4a bd
       0.0039032935 -0.0005538835 0.022258101 -0.049342442
0000c0 60 96 19 3d 55 b0 63 3d 27 e5 84 bd 98 85 2e 3d
       0.037496924 0.055588085 -0.0648902 0.042607874
0000d0 54 1b 98 ba f3 53 a4 3c 57 3e 58 bc 35 f0 a5 3c
       -0.0011604824 0.020059561 -0.013198457 0.020256141
0000e0 36 06 30 3d d1 fc be bc 3d 3e 7d bd a8 7b 49 bc
       0.042974673 -0.023313912 -0.061826933 -0.012297548
0000f0 4b c9 58 3d 7d 7e 81 bd 70 e3 6a 3d 40 93 f8 3a
       0.052926343 -0.06322954 0.057345808 0.0018964782
000100 16 e5 f8 bc 3d 71 6b 3c a4 e7 13 3d 17 cc 84 bd
       -0.030382674 0.01437026 0.03610958 -0.064842395
000110 66 f4 7c bd 48 d4 8e bd 77 05 38 3d 68 d7 8e bd
       -0.061756514 -0.06974083 0.044927087 -0.06974679
000120 8c ee 44 3d 40 02 3e 3d 16 95 96 3c 22 31 91 3d
       0.04807906 0.046388865 0.018381637 0.070894495
000130 41 25 01 bc d0 41 1d 3b 95 b1 0a 3d 10 51 3d bd
       -0.007882417 0.0023995526 0.03386076 -0.046219885
000140 34 f3 81 3d 02 86 e2 bc 67 43 63 bd 48 c2 e8 3c
       0.063452154 -0.02765179 -0.0554842 0.028412953
000150 1d c4 b8 bc 14 73 8c 3d 3c eb 4d bb 02 ce 73 3d
       -0.022554452 0.06857887 -0.0031420728 0.059522636
000160 37 6b 1a bc cb a5 0d bd b0 94 53 bc 4c 98 f2 bb
       -0.009424976 -0.03458194 -0.012913868 -0.007403409
000170 b8 d3 f7 3c 56 37 84 3c ff dc f6 bc c6 1d 59 bd
       0.030252323 0.016139667 -0.030134676 -0.05300691
000180 42 58 8d bd ec cc 95 3d be a0 8d 3c c4 51 8a 3b
       -0.069015995 0.07314476 0.017288562 0.004221173
000190 af 41 74 3d 36 d4 a2 3c aa 80 5d 3c 00 b7 2d bd
       0.059632953 0.01987658 0.013519445 -0.04241085
0001a0 10 2a 4d bd 85 d4 5e bd b1 58 60 3b 1d 36 35 b9
       -0.050088942 -0.054401893 0.0034232552 -0.00017281664
0001b0 9e 47 38 bd 17 7b 42 3d a2 22 af bb 25 68 dc 3c
       -0.044990174 0.04748067 -0.0053447047 0.026905129
0001c0 4a f8 a4 bc e8 63 c9 bc cd a9 0f bd a6 01 69 bc
       -0.020137925 -0.024583772 -0.035074044 -0.014221584
0001d0 65 a0 8c bc 42 ac 16 bd 65 30 8b 3d 80 c7 6f 3d
       -0.017166326 -0.03678537 0.0679634 0.058539867
0001e0 34 48 9d 3d 9f cf 9b 3d 53 19 87 bc c3 e3 0c 3d
       0.07679787 0.0760796 -0.016491568 0.034396898
0001f0 fc 4b d2 bc 64 bb 92 3d 35 8b 9b bc 0c 03 50 bd
       -0.025670998 0.07164648 -0.018987278 -0.050784156
000200 7f 37 06 bd 04 af e2 3a 36 64 73 bd 31 39 2c 3c
       -0.03276777 0.001729459 -0.05942174 0.010511682
000210 14 3c c9 3b 6b da 70 bd bb 34 86 3d e1 79 9a bc
       0.006141195 -0.05880205 0.06553026 -0.018856945
000220 57 d5 8e 3d 27 80 eb ba cd 11 4b 3d 64 df 98 3d
       0.06974285 -0.001796727 0.049577523 0.074644834
000230 e2 77 3e bd 4d d9 1b 3d 9e 71 5b 3d f5 94 3c 3c
       -0.046501048 0.03804903 0.05357515 0.0115101235
000240 b6 05 78 bd fc 25 8e bc ae 84 c2 3c d6 53 57 bd
       -0.06055232 -0.017352097 0.023744907 -0.052570187
000250 84 34 81 3d 37 a3 31 bd 1d 85 c8 bc 5f be 12 3d
       0.06308845 -0.043368544 -0.024477536 0.035826083
000260 6a 6f 83 bd c1 0c 46 3d fd 47 54 3b 48 45 62 3c
       -0.06417735 0.048352007 0.0032391541 0.013810463
000270 16 f7 72 bd 7b cd 6f bd 38 b9 4a bd 6c 8c 8e bd
       -0.05931767 -0.05854557 -0.049493045 -0.06960377
000280 33 d4 8c 3d bf 17 b2 bc af 2a 8c 3c 5d d3 0a 3c
       0.06876411 -0.021739839 0.017110197 0.0084732445
000290 06 1a 0d bd 4b 20 5d bd 93 2b 67 bd f4 17 e0 3c
       -0.034448646 -0.053985875 -0.05643804 0.027355172
0002a0 49 2b 65 bc ba 64 15 3d 1f d8 52 3d 79 83 60 bb
       -0.013987371 0.036473013 0.05147564 -0.0034258051
0002b0 5d 21 10 3c fa fd 04 bc ca 3e 4d bd b9 fa 6e 3d
       0.008797017 -0.008117193 -0.05010871 0.058344577
0002c0 ce c7 51 bd fe 76 c1 bb ae f7 95 3d 93 66 b6 bc
       -0.05121594 -0.0059040776 0.07322632 -0.022265708
0002d0 aa 70 99 3c 4a 35 4e 3d 61 a4 45 bd c7 9f 89 3c
       0.01873048 0.05034379 -0.048252467 0.01679982
0002e0 67 a1 d2 bc 1c 8b 22 bd 9b ea 66 bd ea 17 50 3d
       -0.025711728 -0.039683446 -0.05637608 0.050804056
0002f0 1f 3d b6 bc 92 aa 80 3d 2e 6a 8f 3d 78 a0 1e 3b
       -0.022245942 0.06282534 0.07002674 0.0024204534
000300 55 72 76 3d 85 cf 80 bc 89 5e 2c 3d 91 c6 75 3b
       0.06016763 -0.015723953 0.042082343 0.0037502388
000310 14 a4 25 bd 75 a8 e8 bc d7 60 31 bd 0f bc b1 3c
       -0.04043968 -0.02840064 -0.043305244 0.021696119
000320 e5 82 59 3a 4b 63 77 3d c2 fd b4 3c 19 6d 4f bc
       0.0008297398 0.060397428 0.022093657 -0.012660288
000330 80 59 45 bc 0d be 36 3d 11 7c 2b bd 99 37 93 3d
       -0.012045264 0.04461484 -0.041866366 0.07188339
000340 af cf 76 bb 04 4e 79 3c 73 54 91 3d a1 d6 74 bd
       -0.003766041 0.015216354 0.070961855 -0.059775
000350 fd 40 58 3d d6 b0 67 3d 46 02 6c 3d f2 3f bc 3c
       0.052796353 0.05656513 0.057619356 0.02297971
000360 77 3f bb bc b7 66 4a bd 22 14 57 3d cc cd a1 3c
       -0.02285741 -0.049414363 0.052509435 0.019751452
000370 af 2c 6f 3d 28 9d 3f 3d fd f7 12 bd 0c fa 4f 3d
       0.058392223 0.046780735 -0.03588103 0.050775573
000380 b8 2c 11 3c b3 4b 9e bd 02 48 b5 bb f1 fc 40 bd
       0.008860759 -0.07729282 -0.0055322656 -0.047116224
000390 03 61 bd bc 89 30 b3 bc aa b5 83 bd aa 8b 32 bd
       -0.023117548 -0.02187373 -0.06431134 -0.043590225
0003a0 3b c9 81 3d 16 52 0a bd f6 33 4c bc e3 0b 15 bc
       0.0633721 -0.03376969 -0.01246356 -0.009097072
0003b0 6c e2 6e 3d 88 5b 1a 3d d2 cc e9 bc 69 7c b0 3b
       0.0583214 0.037684947 -0.028540049 0.0053859246
0003c0 72 6e d3 bc 9b 83 47 3c 90 15 fb bc 04 51 15 bd
       -0.0258095 0.012177373 -0.03064993 -0.036454216
0003d0 f3 c1 65 bc 1d 71 48 bd d1 0c ed bc f8 24 e3 3c
       -0.014023292 -0.048936 -0.028936775 0.027727589
0003e0 71 c4 34 bc 91 f1 7c bd 15 ee 58 bd 68 0a 42 bd
       -0.011033163 -0.061753813 -0.052961428 -0.047373205
0003f0 9d 95 4d 3d f9 e0 32 bd c3 1f cc 3a ec 7e 31 3d
       0.05019151 -0.043671582 0.001557343 0.043333933

tcn.0.conv2.bias f4 [64]
000000 39 da f2 bc a3 82 8e bd 53 43 0e 3d 7c e0 ed bc
       -0.029645072 -0.06958511 0.034732174 -0.029037707
000010 98 14 8f bb 5e df 26 bd 0f b9 96 bc bc 92 96 3d
       -0.0043664686 -0.040740363 -0.01839879 0.07352206
000020 da 79 82 3c fa b5 06 bd db b8 61 3d ea 2d 29 bd
       0.015927244 -0.03288839 0.055107933 -0.041303553
000030 51 81 59 3c 69 23 40 bd 12 78 81 ba 2d 16 5e bd
       0.01327546 -0.04690877 -0.0009877703 -0.054220367
000040 29 f7 22 3d 91 01 39 bc 88 41 47 3c c9 da 2d bd
       0.03978649 -0.011291877 0.01216162 -0.042444978
000050 f5 19 8f 3d 50 34 92 3d a3 42 4e 3d b0 56 8d bd
       0.06987373 0.07138884 0.05035652 -0.069013
000060 47 b2 97 bd 97 2f 31 bd b3 a4 08 3d 45 ec 23 3d
       -0.074070506 -0.043258276 0.033360194 0.040020246
000070 ee cb b8 3c ff 40 79 bd f5 c8 35 3d 51 89 70 bd
       0.022558179 -0.060853 0.0443811 -0.058724705
000080 84 2f 8d bd 13 b5 04 bd 52 18 31 3d 56 29 49 bd
       -0.068938285 -0.03239925 0.043236084 -0.049111687
000090 bc 57 47 3d 1c 09 1c 3d 91 e5 1d 3d f5 27 8d bd
       0.048667654 0.038094625 0.03854901 -0.06892387
0000a0 38 2a 2d bc 72 be 95 bd 41 05 64 bc e2 92 2b 3d
       -0.010569148 -0.07311715 -0.013917268 0.041888125
0000b0 c4 16 13 bc f5 26 91 3d 7c ef 88 3d dd 29 86 bc
       -0.008977596 0.070875086 0.06686303 -0.016377384
0000c0 26 b6 26 3c d5 7d 44 3d c6 4c 06 3b fe 7d e9 bb
       0.0101752635 0.047971565 0.0020492538 -0.007125615
0000d0 f1 e8 80 3d f4 97 58 bd 2f 84 09 bd 25 3c 6b bc
       0.0629443 -0.05287929 -0.033573326 -0.014357601
0000e0 c9 37 8b 3d d1 c9 81 bd ca 5a 29 bd fa 96 ef bc
       0.067977495 -0.063373215 -0.04134635 -0.029246796
0000f0 75 4d a8 bc ee c9 7c bd 85 48 6a bd 63 10 4e 3c
       -0.020544747 -0.061716013 -0.057198066 0.012577149

tcn.0.down.weight f4 [64, 117, 1]
000000 ff 1c 9e 3d e0 39 8b 3c b9 1d 92 3c f2 fe a3 3d
       0.07720374 0.01699537 0.017836438 0.08007611
000010 b2 93 77 bb 40 0c 36 3d 0f ed 91 3c c6 50 44 bd
       -0.0037777242 0.044445276 0.017813234 -0.047928594
000020 24 f9 67 3d 77 df 82 3c bd 6f e1 bb b4 1f 90 3d
       0.056634083 0.015975697 -0.0068797753 0.07037297
000030 aa 90 49 3d 8a 30 03 3d df 3d 49 bd 4b 70 0e 3a
       0.049210228 0.032028712 -0.04913127 0.0005433603
000040 d0 de 58 bd cf f5 f1 bc 48 c4 03 bd da 5f 5e 3c
       -0.052946866 -0.029536156 -0.03216961 0.0135726575
000050 19 bc 25 3a d9 47 e3 3c c7 83 91 bd b6 19 9d bc
       0.0006322279 0.02774422 -0.07105213 -0.019177299
000060 83 9b 1f bc 46 a8 95 3d 78 8e 2e bd 40 d0 3d 3d
       -0.009741667 0.07307486 -0.042616338 0.04634118
000070 49 2c 2c b9 81 2a a6 3d 5d 66 b1 bd 79 d3 55 3d
       -0.00016419696 0.08113576 -0.08662102 0.05220363
000080 94 e0 fc bc cb 65 5c bd 89 80 84 bd b8 7e b7 ba
       -0.030868806 -0.053808015 -0.06469829 -0.0013999557
000090 10 24 a0 3c bf 17 38 bd 5b 0a a8 bc b8 66 65 b9
       0.019548446 -0.04494452 -0.02051275 -0.00021877408
0000a0 29 67 e6 bc b8 2e 57 3b 0f b5 93 3d 6d d5 b3 bd
       -0.028125362 0.0032834243 0.072122686 -0.08780942
0000b0 a3 30 61 bd 23 aa ed 3c c8 f0 3d bd 39 3a 5d 3a
       -0.054978024 0.029011792 -0.046372205 0.0008439157
0000c0 ae a5 b5 3d 73 8a 8b bd 2d 3f ba bd 13 77 13 3d
       0.088694915 -0.068135165 -0.09094081 0.03600223
0000d0 b2 b8 b2 3d 43 ce 94 bd 69 b5 9b 3d 61 7c c9 bc
       0.08726634 -0.07265904 0.076029606 -0.024595441
0000e0 96 6a 34 bd 0a 0e 5b 3d 79 1d b1 3d 57 0d 51 3c
       -0.04404696 0.053480186 0.086481996 0.012759528
0000f0 ab 6a 19 bd 6a f2 fb bc de 0a dc bc 7b ab ba bd
       -0.037455242 -0.03075524 -0.02686065 -0.091147386
000100 1a 58 78 3c 68 a7 2e 3d 35 c5 9d ba 10 e7 cc 3c
       0.015157724 0.04264012 -0.0012036922 0.025012523
000110 9d a9 fe 3c bf 0a 18 3d 96 dd 87 3c 5d af 8c 3d
       0.031086737 0.037119623 0.016585153 0.068693854
000120 a5 5c 72 bd ec f7 15 3d c0 cc 23 3d b5 b2 9b bd
       -0.059170384 0.03661339 0.039990187 -0.07602445
000130 76 c6 3a 3d 14 a0 94 bd bd 37 2e bd 96 20 24 bd
       0.045599423 -0.07257095 -0.042533625 -0.04007014
000140 1f c7 bb bc 62 9c 3d 3d 56 b8 9c bc 8a 01 10 3d
       -0.022922097 0.046291716 -0.019130867 0.035157718
000150 8c 97 63 bd f5 c3 4e bd fc e5 ad bd f4 53 59 3d
       -0.05556445 -0.050479848 -0.08491132 0.05305858
000160 b9 45 79 bd b5 ec a9 bd d4 70 59 bd 35 6b aa bd
       -0.06085751 -0.082971014 -0.053086117 -0.08321229
000170 10 30 6c bd e3 62 f6 3c a1 b4 18 3d 6d 9b 8a bd
       -0.057663023 0.03007645 0.037281636 -0.06767926
000180 73 96 2b 3d 46 1f 0a 3d d7 a1 b4 3a 54 7a ad 3d
       0.041891526 0.03372123 0.0013781142 0.08470598
000190 fa 56 bb 3d b5 e9 a5 3d c8 f9 b0 bd 18 a2 06 3d
       0.09147449 0.08101217 -0.08641392 0.03286943
0001a0 d9 3d bf bd 96 a2 79 bd f9 35 9a 3d 35 3b 19 bc
       -0.093379684 -0.06094607 0.07529826 -0.009352495
0001b0 6f 6d b0 bd 65 10 e4 bc 1f de 82 3d e5 e2 79 bd
       -0.08614623 -0.027839849 0.063900225 -0.0610074
0001c0 99 79 96 3d c8 02 3c bd b0 ba 77 3d a0 e1 33 3c
       0.07347412 -0.04590109 0.060480773 0.010979086
0001d0 e5 e3 3c 3d cf 26 a8 3d 84 42 5e bd dd f1 8c 3d
       0.046115775 0.08210527 -0.054262653 0.06882069
0001e0 74 c5 8d 3c 89 2a ce bc 03 6c 89 bd 38 57 ae 3b
       0.017306067 -0.025166767 -0.06710055 0.005320456
0001f0 57 1f 19 3d 94 1a 97 3d 59 68 e9 3c 7d 47 49 3d
       0.037383404 0.07378116 0.02849214 0.049140442
000200 0d a6 ae bd 8c 8a ac bd 45 8b 92 3b 5a 11 af bd
       -0.085277654 -0.08424863 0.0044721686 -0.085482314
000210 eb 81 6d bc de 79 87 bd 7a 52 27 3d 10 e9 9b bd
       -0.014496307 -0.06615041 0.04085014 -0.076128125
000220 c0 e1 55 bd 96 e8 6f 3d 16 97 33 bd c4 bd 81 bd
       -0.052217245 0.05857142 -0.04384526 -0.06335023
000230 58 9a 84 3d 4d ac b8 3d a6 56 b6 3c 64 14 18 bd
       0.06474751 0.09017239 0.022258114 -0.03712882
000240 bc 23 43 bd b3 74 8b bd d2 5d 83 3c 79 f8 e4 ba
       -0.0476415 -0.06809368 0.016035948 -0.001746907
000250 a6 bf 26 bc 4b 43 60 bd 9b 67 a9 3d ce 66 7a bd
       -0.0101775285 -0.054751676 0.08271714 -0.0611332
000260 85 6d 26 bd 71 1e b2 3d 0d 6e 26 3b 12 64 ec 3b
       -0.04063179 0.086972125 0.0025395185 0.0072140777
000270 0a 4d 52 3d f7 95 05 3c a9 2f 16 3b d3 91 1c 3d
       0.051343 0.00815343 0.0022916591 0.038225006
000280 72 ff e6 3c ad 84 96 bd fa a9 8e 3c 19 e3 22 bd
       0.028197978 -0.07349525 0.017415036 -0.03976736
000290 78 4f a8 3d ab 68 eb 3c b2 1f d6 3c 20 27 a2 3d
       0.082182825 0.028736433 0.02613816 0.07917619
0002a0 34 87 7a bc da f0 3c 3d cf 5a ad bd 08 67 18 3d
       -0.015291024 0.04612813 -0.08464586 0.037207633
0002b0 ef 2e 95 3d 34 b1 41 bd 03 31 61 bc c7 32 63 3c
       0.072843425 -0.047288135 -0.013744595 0.013867087
0002c0 47 db 2e bd 7a ef 8b bd 12 b9 45 bd 48 18 9f bd
       -0.042689588 -0.06832786 -0.0482722 -0.07768303
0002d0 06 8c e1 3c 63 f8 e7 bc d3 5b a6 3d eb 1c 4e bd
       0.027532589 -0.028316682 0.08122983 -0.050320547
0002e0 8f 43 90 3d 03 35 32 bd 66 47 c2 bd 01 89 02 3d
       0.07044136 -0.043507587 -0.094862744 0.03186894
0002f0 8e 23 28 bd 8c cc 81 bd 7c 0b 47 bd 50 d2 5a bd
       -0.041049533 -0.06337842 -0.048594937 -0.053423226
000300 f3 15 6d bc 04 bd 00 3d b6 2c c6 3c c4 1f 4d 3d
       -0.014470565 0.03143026 0.024191242 0.050079122
000310 31 8f 69 3d fc 0a c3 3c ae 83 fd bb 18 a9 a5 bd
       0.057021324 0.023808949 -0.0077366447 -0.08088893
000320 e1 a1 4d 3d 57 26 a9 bd 6c cf 45 bc e5 9e ba bb
       0.050203208 -0.08259266 -0.012073379 -0.0056952112
000330 b3 ee 96 3d 11 3b 8a bd 95 dd f4 bc 32 63 43 3d
       0.07369747 -0.06749547 -0.029890815 0.047702022
000340 ae a6 ff 3c 12 dc 33 3c d3 fa 32 3d ca 52 7d 3d
       0.031207409 0.010977762 0.043696236 0.061846532
000350 47 db 96 3d 08 ae a7 3d 70 01 37 bb 42 b8 ba 3d
       0.073660426 0.08187491 -0.002792444 0.09117176
000360 fe 66 95 bc 1e 6f 88 3d d1 97 6b 3d e9 f1 d8 bc
       -0.018237587 0.06661819 0.05751783 -0.02648254
000370 95 08 a0 bc 85 cd a0 bd 06 36 89 3c 37 63 77 bc
       -0.019535342 -0.078517 0.016749393 -0.015099338
000380 7c 6e 27 3d cb ad 6d 3d 0b 73 90 3d 42 7f bb bc
       0.04087685 0.05802707 0.07053193 -0.02288783
000390 eb d5 8a 3d 24 44 ea bc 95 e3 80 bc 73 87 2e bd
       0.06779083 -0.028596945 -0.01573352 -0.042609643
0003a0 7c 6e ac 3d a6 33 9e 3a 57 4a 57 bc 09 2c 0b bd
       0.08419511 0.0012069836 -0.013140283 -0.033977542
0003b0 e8 dc 7d 3d 9b 35 9d 3a 5c 0c 61 3d 04 7c 93 bd
       0.06197825 0.0011994125 0.054943427 -0.072013885
0003c0 b9 96 a0 bd 6f b0 d0 bc f5 d6 ae 3d 00 95 a7 bd
       -0.07841248 -0.025474755 0.085370935 -0.08182716
0003d0 d2 c0 0a 3d fe 03 12 bd ea 89 ea 3c 87 a5 99 bd
       0.033875294 -0.03564834 0.028630216 -0.07502275
0003e0 6b 71 3a 3d ca 5c 3b 3c c3 a4 95 bd d7 ce a4 3d
       0.04551832 0.011435697 -0.073068164 0.08047264
0003f0 39 6b eb bc 29 91 96 bc 5d b0 9d bd aa d2 fb 3c
       -0.028737651 -0.018379765 -0.07699654 0.0307401

tcn.0.down.bias f4 [64]
000000 5b 1e 3a bc 7f 98 20 bd 1d 43 62 bd 7c c2 b0 bd
       -0.011359776 -0.03920793 -0.055239785 -0.08630845
000010 56 72 9b bd c5 04 18 bd 1a d6 ba 3d 85 69 09 bc
       -0.07590167 -0.037113924 0.09122868 -0.008386974
000020 0c 59 b0 bd 7d 03 fb 3c e2 52 bd bd 4c 6d dd 3c
       -0.08610734 0.030641312 -0.09244324 0.027029656
000030 1c a5 34 bb 8c c9 89 bd 10 e4 1e bd 7c eb 33 bd
       -0.0027564233 -0.06727895 -0.038791716 -0.043925747
000040 37 d0 8d bd 1b 48 65 bd 3b c5 65 3d f7 7f a8 3d
       -0.069244795 -0.05597697 0.056096297 0.08227532
000050 98 f7 b2 bd 96 73 bc 3d 6f 2e 2b 3d 69 21 96 3b
       -0.08738631 0.09201734 0.04179233 0.0045816195
000060 24 4d 83 bd fe b0 93 3c 2f 26 a0 3d b8 9c 08 bd
       -0.06411198 0.018028732 0.07819783 -0.033352584
000070 ea 69 bb 3d fe d4 97 3b 44 41 4e bd 7b 13 bc 3d
       0.09151061 0.004633545 -0.05035521 0.09183403
000080 e5 95 2e 3c fb c4 b7 3c 31 5f 9d bd a0 28 ef bb
       0.010655855 0.022432795 -0.07684172 -0.007298544
000090 4a 3b ab 3d 9b a6 80 3d e8 20 cc 3c 4a cf 2a bd
       0.08360918 0.062817775 0.024918035 -0.041701593
0000a0 bc d4 92 3c 52 04 cf 3c 9a b5 70 bd a4 4d bc 3c
       0.017923705 0.025270615 -0.05876694 0.02298624
0000b0 b5 2b 95 bd f3 20 b8 3d 21 ad 58 3d a9 ab 44 bc
       -0.07283727 0.089906596 0.052899484 -0.012003818
0000c0 56 b9 80 bd ee b8 6b 3d 87 dc 4e bd 04 b8 b6 3d
       -0.0628535 0.05754941 -0.05050328 0.08921817
0000d0 cc 6c 18 3b 05 6c ff bc 20 43 7f bd 08 9e 58 bc
       0.0023258207 -0.031179437 -0.062319875 -0.013221271
0000e0 e7 ca 2b 3d de b9 9d 3d 46 31 c3 bc 45 52 b3 3d
       0.04194155 0.07701467 -0.023827206 0.08755926
0000f0 d8 00 11 bd 98 49 89 bd 5c d5 d1 bc 4c b5 ea 3b
       -0.035401195 -0.0670349 -0.025614433 0.0071627256

tcn.1.conv1.weight f4 [64, 64, 3]
000000 86 30 09 3d 79 74 64 3c 25 15 82 3d e0 45 23 3d
       0.03349354 0.013943785 0.06351689 0.03986156
000010 e9 33 4a 3d 8c 56 5c 3d c4 8a 4a bd 1b 60 8a bd
       0.04936591 0.053793475 -0.049448743 -0.06756612
000020 69 b2 9d bc bf 02 8f bd b2 cb 2d bd 42 2c 15 3d
       -0.019250112 -0.06982946 -0.042430587 0.03641916
000030 66 90 66 3d 0f 9b 79 bb 05 64 bb 3c 25 d4 fc bc
       0.056290053 -0.0038086807 0.022874841 -0.030862877
000040 b4 9f 53 bd 61 eb eb 3c b0 32 3c bd 78 74 58 bd
       -0.051665977 0.02879876 -0.045946777 -0.05284545
000050 42 c9 52 bc 85 ee 77 3d 35 52 28 bd 19 45 cb bb
       -0.012865366 0.060530204 -0.041094024 -0.0062033054
000060 2a 04 6f bd e2 9f 15 3d c4 b3 16 3d f5 76 74 3d
       -0.05835358 0.03652943 0.03679253 0.05968376
000070 32 1b 82 bd 40 6e 89 bd 2a 33 31 bd e3 d3 4a bd
       -0.06352843 -0.06710482 -0.043261684 -0.049518477
000080 77 e3 d8 3b 7f b7 2d bd a0 3d 84 3c 08 89 84 3d
       0.006618913 -0.042411324 0.016142666 0.06471449
000090 a1 48 fc 3c 06 9c 64 3d 02 0b 29 3d 92 32 f1 bc
       0.03079635 0.055812858 0.041270263 -0.02944306
0000a0 54 e1 2e 3c 53 6c d9 3c 4a 2b 0c 3d a7 7d 8f bd
       0.01067384 0.02654091 0.03422097 -0.07006388
0000b0 ab f5 6b bd 8d 65 09 bd 4a 59 62 bd a9 e1 f3 3c
       -0.057607334 -0.033544112 -0.055260934 0.02977069
0000c0 59 be 42 3d d9 d9 89 bc 38 9c 84 3d 44 2d 8e bd
       0.04754481 -0.01682751 0.06475109 -0.069422275
0000d0 4c 7a 6c 3d d2 b0 9e 3c 60 32 33 bd e5 9e de bc
       0.05773382 0.019371424 -0.043749213 -0.027175376
0000e0 51 0c 03 3d 2d 07 6a bd 8e 30 80 3d d8 9e 86 bd
       0.031994168 -0.05713575 0.06259261 -0.06573266
0000f0 9f a0 74 3d 6c 06 93 3b e7 c3 dc bc 14 b4 47 3d
       0.059723493 0.0044868495 -0.026948882 0.04875572
000100 9a c8 8a bc 0a c3 67 3d 9d af 40 3d 64 6a e7 bc
       -0.016941357 0.056582488 0.047042478 -0.028248973
000110 23 1a 89 3d eb b4 6c 3b 22 6d bf 3b 9b 4a 93 b9
       0.06694438 0.0036118578 0.005841867 -0.0002809361
000120 89 b1 e9 3b 9c 55 19 bd 7b b7 f7 3c 00 ff 3f 3d
       0.0071317595 -0.03743516 0.030238857 0.046874046
000130 c3 f3 a3 bc 67 a2 82 bd a7 30 b3 3c 99 1f f2 3c
       -0.020013696 -0.06378632 0.021873785 0.029556083
000140 75 68 56 bd af 35 36 bd b3 c7 2f bd f8 9e 80 bc
       -0.05234571 -0.04448479 -0.042915057 -0.015700802
000150 cd 21 45 3d 3a 7b 3a 3c 7b dc cd 3c b9 bc 40 bd
       0.048127938 0.011381919 0.025129547 -0.04705498
000160 3f 30 45 3d cc bb 6d 3d 6d 70 3d bc cf 33 59 3d
       0.048141714 0.058040425 -0.011562449 0.053027924
000170 79 47 52 3c 67 07 8c 3d 54 6e b6 bb 8a c5 8e bc
       0.012834423 0.068373494 -0.0055673514 -0.017428178
000180 32 e9 7a 3d 4b 31 0e bd 05 1e 7a 3d b7 7b 96 bc
       0.06125755 -0.03471498 0.061063785 -0.018369539
000190 ad 92 3e 3a 1d e8 b2 bb 7e 74 71 bc dd 8e 7b 3d
       0.0007269781 -0.005459799 -0.014737247 0.061415542
0001a0 73 80 88 bd 26 b2 75 bc 46 6a 84 3c 97 93 ee bc
       -0.06665125 -0.014996087 0.016163956 -0.02912311
0001b0 ad 47 91 3c 9e 06 77 3d e3 b8 88 3d b3 54 66 bc
       0.017734373 0.060309045 0.06675889 -0.01405828
0001c0 25 63 1b bd e2 32 44 bd 79 fe 4e bd 7a 5b 06 bd
       -0.03793635 -0.047900088 -0.050535653 -0.032802083
0001d0 f6 4f 66 3d 1d 80 86 bd 13 ac db 3c b5 07 07 bd
       0.0562286 -0.065674044 0.02681545 -0.032966334
0001e0 6a 8b db ba 67 88 80 bd 08 67 d6 bc 6d ea 3d 3c
       -0.0016749923 -0.06276017 -0.026172176 0.011591536
0001f0 f6 ff 59 bd 3b e0 0b bd 6f 95 d3 bc 73 15 15 3d
       -0.05322262 -0.03414939 -0.025828091 0.03639741
000200 aa 23 ed 3c fe 15 1d 3b b3 5b 35 bd 31 67 64 3c
       0.02894767 0.0023969407 -0.044276904 0.013940618
000210 8d 91 2a bd 6a 25 91 bc 1a 79 49 3b f3 16 86 bd
       -0.041642714 -0.017718036 0.0030742348 -0.06547346
000220 2c dd eb 3c f0 8c 2f 3d d3 5d 0e bb ac 19 20 3c
       0.028791986 0.042859018 -0.0021723404 0.009771746
000230 a6 af 87 bc e9 59 7c bc 8c 6c 6c bd c0 72 86 3d
       -0.016563248 -0.015402296 -0.057720706 0.065648556
000240 a2 84 75 bc 0d 54 f1 bc bd 55 2f 3d 93 b8 7a 3d
       -0.014985235 -0.029459024 0.042806376 0.06121118
000250 24 db 80 3d 01 c1 d1 bc f4 a8 06 bc b6 58 92 bc
       0.06291798 -0.025604727 -0.0082189925 -0.017864566
000260 45 95 06 bc a8 77 83 bd 27 5e 20 3b c3 46 8a 3d
       -0.0082143 -0.06419307 0.0024470182 0.06751778
000270 e4 9a 0b 3c e3 57 33 bd 54 50 27 3c ff 6d 1c 3d
       0.0085208155 -0.043784987 0.010212023 0.038190838
000280 65 5a b2 3b 80 b8 3c 3d 46 62 75 bd 47 93 93 3d
       0.005442905 0.04607439 -0.059908174 0.07205825
000290 f7 db 85 bd bc b2 55 3d 6c 79 e4 bc 3f fd 13 3d
       -0.065360956 0.052172408 -0.02788993 0.036130186
0002a0 86 1c 8a 3d 60 1c 87 3c 96 e1 62 3b 2f 04 8d 3d
       0.06743722 0.016493022 0.0034619323 0.068855636
0002b0 64 cd 06 3d 74 fb f0 3c b5 5d b7 bc b4 30 3f 3d
       0.03291072 0.029416777 -0.02238355 0.046677306
0002c0 cc d5 57 3d 11 02 9f 3b d5 fe ef 3c 93 f8 82 3d
       0.052694127 0.0048525413 0.029296318 0.06395068
0002d0 ce 4e 2c 3d 7a c5 f3 bc a2 f7 80 3d f1 13 04 bd
       0.04206734 -0.02975725 0.06297232 -0.03224558
0002e0 a8 38 c1 3c 2c 1e 4c bd 59 a1 25 3d 98 47 64 bc
       0.023586586 -0.04983346 0.040437076 -0.013933085
0002f0 55 9d 19 bc 13 a9 c3 bc c6 55 93 3d 00 71 bd 3c
       -0.00937589 -0.023884332 0.07194094 0.023125172
000300 23 83 09 bd 5d ca 8f 3c 54 a0 db bc 1f 9e 90 3d
       -0.033572327 0.017552549 -0.026809849 0.07061409
000310 94 d7 7c 3d 07 23 5a 3d 5c 0e 4f bd 01 5a eb 3c
       0.06172903 0.05325606 -0.050550804 0.02872944
000320 26 63 07 bc 24 a8 de bc a5 fb 31 3d 2d 4d 57 3c
       -0.008263385 -0.027179785 0.043452878 0.013140959
000330 4e ad 99 bb 73 4f 6d 3d 33 1f e0 bc 6e 76 57 3d
       -0.004689849 0.057937097 -0.027358627 0.052603178
000340 9c 2b 37 3c c7 44 83 3d e7 bd 7f 3c 7e 78 05 bc
       0.011179831 0.064096026 0.015609241 -0.008146403
000350 f1 0e 35 3d 1f c7 09 bd cf d7 7a bd 7d 47 4f bd
       0.044203702 -0.033637162 -0.061240967 -0.050605286
000360 73 d7 f9 3c dc e9 44 bc 88 5a 7d 3d 65 8c 55 3d
       0.030498242 -0.012018647 0.061853915 0.052135844
000370 ee 99 88 bd 5f ac 7a 3d 42 64 21 bd de 22 bb bb
       -0.06669985 0.061199542 -0.039402254 -0.0057109436
000380 cc ea 6e bd eb 0d 1a bc 63 58 45 3d e0 b7 19 3d
       -0.05832939 -0.009402732 0.048179995 0.037528872
000390 ad ee 28 3a 66 21 93 3d 70 a3 90 3d 25 34 26 bd
       0.0006444257 0.071841046 0.07062423 -0.040577073
0003a0 b6 b0 eb 3b 84 a1 a1 3b e9 65 a9 3b ca ed 5f 3d
       0.0071926964 0.0049325842 0.0051696193 0.054670133
0003b0 43 7a 0f bd 3d a9 8e ba 9f cd fb 3c 22 1b 8c 39
       -0.035028707 -0.0010884177 0.030737696 0.00026723096
0003c0 11 d0 bd 3c 8e fa a8 3c 21 27 0c 3d 71 b2 65 bc
       0.023170503 0.020627286 0.034217004 -0.0140195945
0003d0 44 ea 4f 3d e8 2e 77 3c 9a a5 9f bc de e3 58 bd
       0.050760522 0.015086867 -0.019488145 -0.052951686
0003e0 21 db 6d 3d 47 9b 3c 3d 46 a5 6f 3d dc 35 8d bd
       0.058070306 0.04604652 0.058507226 -0.068950385
0003f0 e3 4e 9f bc 74 f0 eb bb 60 22 88 3d 35 d9 83 3d
       -0.019446796 -0.007200295 0.066471815 0.06437913

tcn.1.conv1.bias f4 [64]
000000 57 4f 28 bd 46 fa 1d 3d d0 0b 4f bc 95 d7 89 3d
       -0.04109129 0.038568757 -0.012637094 0.06730572
000010 8e 0b 8b bc d0 70 86 39 be 85 55 3d 57 c0 2b 3d
       -0.016973283 0.00025642524 0.0521295 0.041931476
000020 23 50 47 bd d2 b4 47 3d c6 13 12 bd f5 89 7f 3d
       -0.04866041 0.048756428 -0.03566339 0.062387425
000030 52 b9 72 bd 3e e4 f4 3c 15 94 85 bd 93 be 21 3d
       -0.059258766 0.02989399 -0.06522385 0.039488386
000040 81 7d d0 3a 5f 8b b4 3c 70 2f 26 3d 07 a5 b7 bc
       0.0015906544 0.022039114 0.040572584 -0.022417558
000050 9c e7 d0 bc 52 c5 69 bd 13 97 33 3d 3f 84 11 bd
       -0.025501065 -0.057072945 0.043845247 -0.03552651
000060 42 ac 10 3d 82 cf 55 3d 73 60 ec 3b 83 b3 0f bd
       0.035320528 0.052199848 0.007213646 -0.035083305
000070 57 ff 09 39 10 5c 2e 3d 1e 00 41 bb 90 a0 d2 3b
       0.0001316046 0.042568266 -0.0029449533 0.006427832
000080 ea 76 37 bd e6 2c 94 3d b9 9a 11 bd 83 25 84 3d
       -0.04479114 0.07235126 -0.035547946 0.06452467
000090 cf 38 45 3d 24 18 84 bd c3 00 42 3d 3a 67 8c bc
       0.04814988 -0.06449917 0.047364008 -0.017139066
0000a0 d8 3f 7e 3d b8 7a 99 3c 39 5f 84 bd ff c2 1b bd
       0.062072605 0.018735275 -0.06463475 -0.03802776
0000b0 35 e9 b3 bb 33 49 89 bd 3f 0a ef 3c 30 74 80 bd
       -0.005490447 -0.06703415 0.02917969 -0.06272161
0000c0 06 49 85 bd f1 5e 7b 3c a2 9e 67 3d 5a 72 55 bd
       -0.06508069 0.01534246 0.05654777 -0.052111007
0000d0 01 04 90 bc f5 75 d8 bb 5c dc 8b bd bf 1c d5 3c
       -0.017580034 -0.0066058584 -0.068291396 0.026014684
0000e0 4c 10 6a 3d c0 16 38 bd f6 09 bb 3b 0c 7c 14 bd
       0.05714445 -0.04494357 0.0057079745 -0.036251113
0000f0 df 71 fe bc 44 67 4d bd 4f 4c 10 bc 93 84 0d 3d
       -0.031060157 -0.05014731 -0.008807256 0.03455026

tcn.1.conv2.weight f4 [64, 64, 3]
000000 dd d8 1e bd 90 31 4f 3c 06 78 97 3d 26 aa 19 3d
       -0.038781036 0.012646094 0.073959395 0.03751578
000010 23 4d 33 3d 57 c1 6b bd 7f 95 5e bd d8 f0 0f 3d
       0.043774735 -0.05755743 -0.05434179 0.035141796
000020 48 21 3c 3d c9 55 93 bd 12 df a5 bc 01 d1 af 3c
       0.045930177 -0.071940966 -0.02024797 0.021461966
000030 b5 92 ac bc d8 c4 62 3d c4 d1 e1 b9 c4 e2 e3 3c
       -0.02106605 0.055363506 -0.00043071632 0.027818091
000040 a6 7b 5d bc d9 cf 75 3c 81 87 09 3d bb 0b d6 bb
       -0.01351825 0.015003168 0.033576492 -0.00653216
000050 5a 00 52 3d f7 29 b0 bc ef e9 5c bd 66 a7 05 3d
       0.051269867 -0.021504385 -0.053934034 0.032630347
000060 33 05 02 3d 3e 55 8c 3d 0f af 5c bd 1c 0c ee bb
       0.03174324 0.06852196 -0.053877886 -0.007264627
000070 9d 99 8e bd 84 ab 43 3d 0d 56 d6 bc 22 98 2d bc
       -0.06962893 0.047770992 -0.02616408 -0.010595353
000080 08 44 91 3d 93 9f 24 3d a2 99 64 bd f5 a4 64 3c
       0.07093054 0.040191244 -0.05581058 0.013955344
000090 1f 10 f8 3b 53 1e 60 bd 5d 5f 60 3d c0 00 86 bc
       0.007570281 -0.05471642 0.054778446 -0.01635778
0000a0 4c 24 7f bd fd 75 20 bc 2c 4b 97 3d d1 77 90 3d
       -0.062290475 -0.009793756 0.07387385 0.07054103
0000b0 14 6b 37 3c 1f 10 33 3d 5c b4 33 bc 96 77 23 bd
       0.011194963 0.043716546 -0.010968294 -0.039908968
0000c0 c1 60 7a 3d 9d 4e b6 bc 57 67 97 bc 2a 3d 45 bd
       0.061127428 -0.022254283 -0.018481893 -0.048154034
0000d0 8e e1 5e 3d 60 5a 94 3d 3f 2f 40 bd b2 69 ad 3c
       0.054414324 0.072438 -0.046920057 0.021168564
0000e0 a6 dd 9b 3d 3b bb c9 3c 1e 2a 8a 3c 2f 2b 9e 3d
       0.076106355 0.024625411 0.016865786 0.0772308
0000f0 16 d1 56 bd 1f 46 38 3c d5 f9 92 bd c9 f2 69 bd
       -0.052445494 0.011247187 -0.07176558 -0.057116304
000100 a7 0c 77 bc 40 7c 10 3d dc 2e 7e 3d 92 1e 87 bc
       -0.0150787 0.035274744 0.062056407 -0.01649407
000110 29 c0 fe bc b5 90 87 bd c9 ca b4 bb 63 0d 50 bd
       -0.031097488 -0.066193976 -0.005517338 -0.050794017
000120 62 ec 95 3d 1b c4 2f bd 8e ce 1d bd a7 30 91 3d
       0.07320477 -0.04291163 -0.038527064 0.07089358
000130 24 87 5e bd 9d 37 fb bc 68 43 29 bc 2a 06 7b 3d
       -0.0543281 -0.030666167 -0.010331012 0.061285175
000140 bb d7 92 bd d7 19 dd bc e6 16 53 bb e3 d1 ca bc
       -0.071700536 -0.02698986 -0.0032209693 -0.024758285
000150 44 fb 5b bd 5c da 8f 3b 17 7d 19 3d 95 51 6b 3d
       -0.053706422 0.004390044 0.03747281 0.05745085
000160 98 e7 22 3d 67 3a a3 3c 11 c5 38 bd b2 68 73 bd
       0.039771646 0.01992531 -0.045109812 -0.059426017
000170 6d dc 96 bd b1 9f 18 bd a5 0a 71 3d 3b ad a5 3b
       -0.07366262 -0.03726167 0.058848042 0.005056051
000180 20 03 6d 3c 3a 8a 40 bd 88 a8 8f 3d 97 c4 49 3d
       0.014466077 -0.047006823 0.07014567 0.04925975
000190 6e e5 11 3d 14 88 0f 3d f9 4f 6a 3d e2 51 90 3d
       0.03561919 0.035041884 0.057205174 0.07046868
0001a0 eb f4 88 3d 04 ce ad bc 0c bb 85 3c 60 de d9 3c
       0.066873394 -0.0212164 0.016324542 0.026595294
0001b0 e3 26 82 bd 59 14 1f bd f7 cd 0e 3d 43 5f a0 bd
       -0.06355073 -0.038837764 0.034864392 -0.0783067
0001c0 1d 3d 00 bd c0 5b 54 3d 2e 4f 81 ba bc 19 f6 bc
       -0.031308282 0.051845312 -0.0009865516 -0.030041568
0001d0 fd b9 41 bd 20 54 64 3d 1f 67 e1 3c 66 6d a0 3c
       -0.047296513 0.05574429 0.027514992 0.019583415
0001e0 71 4a 5f bb 35 ce 1c bd c6 11 4a 3d 75 8a 4d bd
       -0.003407147 -0.03828259 0.049333356 -0.05018087
0001f0 54 59 00 bd 4f d6 9d bc a6 93 85 3d 48 01 0f 3d
       -0.03133519 -0.01926723 0.06522302 0.03491333
000200 92 0e 70 bd 6b ee 58 bd 82 29 0b bd 6b e4 47 bd
       -0.058607645 -0.052961748 -0.03397513 -0.04880182
000210 98 67 d9 3c c4 6e a4 bc 20 d4 c9 bc b6 77 94 3d
       0.026538655 -0.020072348 -0.024637282 0.072493955
000220 ab ef 3c 3b ea 31 6c 3d 66 54 86 bd b0 b1 2d 3c
       0.0028829377 0.05766479 -0.065590665 0.010601446
000230 13 49 19 bc f1 4b 0e bd a5 46 78 bd 9d 6e d4 bc
       -0.009355801 -0.034740392 -0.060614247 -0.02593165
000240 3e 56 d4 bc fa a6 77 bd 01 d8 62 bd 6e eb 3c 3d
       -0.02592003 -0.060461976 -0.05538178 0.04612296
000250 41 26 a5 3c d9 b7 77 3d 4a 59 2a bd 3f 04 76 bd
       0.020159842 0.060478065 -0.04158906 -0.060062643
000260 a5 34 3c bd 6e e0 fc bc 6c e7 0e 3d 81 d5 6b bd
       -0.045948643 -0.030868735 0.03488867 -0.05757666
000270 f7 9c 2a 3d f3 0d 02 bd 79 fc dd bb 4a 39 34 3d
       0.0416536 -0.031751584 -0.006774482 0.043999948
000280 a5 94 c8 3c 21 17 95 bc 15 62 10 3d 34 40 8a bd
       0.024484942 -0.018199505 0.03524979 -0.06750527
000290 a4 bc 89 bc 8d 88 3e 3d 01 a8 0e 3c fe aa 9d 3c
       -0.016813584 0.046516944 0.008707047 0.019246574
0002a0 29 75 7a bd c0 e1 66 3c c1 cb ca b9 4d a1 9c 3d
       -0.06114689 0.014091909 -0.0003868025 0.07647953
0002b0 09 a5 8d 3c 29 a2 ea 3b d4 4e b8 ba 4f 11 d2 bc
       0.017290609 0.0071604443 -0.0014061579 -0.025643019
0002c0 b4 87 3d bc ec e0 1b 3d e5 37 26 3c 1c ff 9a 3d
       -0.011567999 0.0380563 0.010145162 0.075681895
0002d0 fd fc 31 3c 6d 16 36 bd 3d c4 e5 bc 9c c6 2e bc
       0.01086354 -0.04445498 -0.028047675 -0.010667469
0002e0 98 24 5b bd 71 23 03 bd c2 ca 33 3d 09 ed 39 3d
       -0.053501695 -0.03201622 0.043894537 0.04539207
0002f0 77 5b dd 3c f0 a6 dc bb 45 9c 22 3d 34 c8 7f 3d
       0.027021153 -0.0067337677 0.03969981 0.062446788
000300 6d 3a 70 bc 4a 14 3c 3d a1 b0 8c bb 9a 63 67 3c
       -0.014662367 0.045917787 -0.0042935167 0.014122868
000310 0c be 50 bd 5f 59 88 3c 0d ad 2d bc 2d b3 74 ba
       -0.050962493 0.016644178 -0.010600341 -0.00093345606
000320 af cb d2 bc 45 a7 4f 3d ac f0 9d 3b da ad 58 3c
       -0.02573189 0.05069663 0.00481995 0.013225043
000330 37 c5 2d 3d 0e f5 54 3d e3 a8 3c 3d db 00 94 3c
       0.042424407 0.051991515 0.0460595 0.018066814
000340 27 4f 4b bc 2e ce 7f 3c 43 34 a1 bd 71 a0 8f bc
       -0.012409008 0.015613122 -0.07871296 -0.01753256
000350 1f 42 64 bd 9d eb 67 3d 64 6d 09 bd d0 6e c3 bb
       -0.05572712 0.056621183 -0.03355159 -0.0059641376
000360 74 33 69 3d d4 cd 2c 3d fe 54 ec b8 38 94 4a 3c
       0.056933835 0.04218848 -0.00011269188 0.01236444
000370 3a 67 73 bd 36 50 f2 3c f2 69 52 bd d9 a7 93 bd
       -0.059424616 0.029579263 -0.05137057 -0.07209749
000380 d9 8d 1b bd 31 39 72 bd 0e 06 33 bd 95 5c 1b bd
       -0.037977073 -0.059136573 -0.043706946 -0.03793009
000390 3b 12 da bc 3c d9 07 3d 6d f4 c8 3c 58 ac 32 3d
       -0.026620021 0.033166155 0.024530614 0.04362139
0003a0 d7 72 6a 3c 48 98 75 bd c3 8c 30 3d 72 a6 1f bc
       0.0143096065 -0.05995968 0.04310299 -0.0097442735
0003b0 75 9f e7 3c e9 0a f1 bc 3d 86 de bc 07 2f 83 bc
       0.028274277 -0.029424148 -0.02716362 -0.016013635
0003c0 0f 32 1a 3d 1f d6 53 3a 27 94 be bc 76 af c5 3b
       0.037645396 0.0008080918 -0.023264004 0.0060328795
0003d0 5d ea 92 3a 7a 57 24 3d c4 f6 8c 3d 17 25 17 3d
       0.0011208762 0.040122487 0.06883004 0.036900606
0003e0 c7 b5 22 3d d6 bc 82 3d ed e5 53 3d a6 6a 47 3d
       0.039724138 0.06383674 0.051732946 0.048685692
0003f0 74 96 fa 3b 06 5d a7 bc 2d c1 f2 bc 91 44 0a 3c
       0.00764733 -0.0204301 -0.029633129 0.008439199

tcn.1.conv2.bias f4 [64]
000000 4d 97 bb 3c e5 d2 46 bc da a0 cd 3c 44 24 a2 ba
       0.022899294 -0.012135242 0.025101114 -0.0012370427
000010 f5 80 f2 3c 4e c9 ee bc ff 4e 66 3d c6 ca 39 3c
       0.029602507 -0.029148724 0.05622768 0.011339849
000020 0f 1c 83 bd 1b 95 fa bc ea 36 d2 bc bd 9b 52 bd
       -0.06401836 -0.030588677 -0.02566095 -0.051418055
000030 43 5b 85 bd d8 d8 0e 3d c7 80 1b 3c 53 49 57 bd
       -0.065115474 0.034874767 0.009491152 -0.05256016
000040 d5 79 13 bd e9 7c 85 3d e0 22 64 3d 79 45 40 3c
       -0.03600486 0.06517965 0.055697322 0.011735314
000050 ab 96 8e 3d 7d 79 93 3d d2 63 bd bb 48 c3 4b 3d
       0.069623314 0.072009064 -0.005779722 0.04974678
000060 21 a1 7d 3d 6b 0b 95 3d 31 c7 fc 3c 9e 54 1a bd
       0.061921243 0.072775684 0.0308567 -0.037678353
000070 f5 b9 9f bb 20 92 10 bd df 15 2d 3d 37 cc f6 3c
       -0.0048744627 -0.035295606 0.042257186 0.030126674
000080 94 a1 05 bd 2f 54 82 3d 18 ca a1 3c 1e 2b c3 3b
       -0.032624796 0.06363713 0.019749686 0.0059560677
000090 2d fc af bc 71 ea 03 bd 55 85 20 3d 7f f2 84 bc
       -0.021482551 -0.032206003 0.039189655 -0.016228912
0000a0 c0 63 2d 3d 80 e5 9a 3c 95 cc 18 3d b1 3b 7e 3d
       0.042331457 0.018908262 0.03730448 0.062068645
0000b0 1b 3c 97 3b 38 a0 ba 3b 53 b7 f0 3b 57 4e 1d 3d
       0.0046153194 0.005695369 0.0073460727 0.03840479
0000c0 68 a6 34 3b ae b0 76 3c 5a 15 0c bc 78 74 1c bb
       0.0027565006 0.015056772 -0.0085500125 -0.0023873132
0000d0 20 88 ea bc e0 bf 32 bd f2 8d 52 3d f0 97 2f bd
       -0.028629363 -0.043640018 0.0514049 -0.04286951
0000e0 bd ba f8 3c 7d 7a 2e 3d 62 f7 6e bd b9 ed c5 bc
       0.030362481 0.042597283 -0.05834139 -0.024161207
0000f0 b2 66 16 3d 2f 11 82 bc 59 bb 84 3d d2 0e 87 3d
       0.03671903 -0.015877334 0.06481046 0.065946236
